LitReview/AccurateEEG/outputs/models/binary_lstm_best.pth (torch, 822522 bytes, 26 tensors)

lstm.weight_ih_l0 f4 [512, 1]
00000000: 375c 953d da5a 9e3d e420 c7bc 0d20 aa3d
00000010: c117 9dbc 9e8a d63c c5e9 31bd a751 7f3d
00000020: 0fbc a83d 02f0 6fbd 884c 9e3d c29c 933c
00000030: 6df3 873d 6a25 c43c ee7c 523d 0d82 44bb
00000040: 68ef 893d 91f8 943c 6577 2abd 31be f03c
00000050: 705e 2cbd 4909 f4bb a0d3 ffbc 6c94 663d
00000060: 41f8 80bd ed17 f6bc f658 b9bc b06f 58bd
00000070: c72a 043c 50c3 acbd 432f b43d f8db a2bd
00000080: b56f 923d 0b04 ac3c 6221 dfbc 3a22 6a3d
00000090: 5857 863c cb67 973d 4457 f83a 32a3 e8bc
000000a0: 04b2 c33c c392 5abc 140c 443d f893 a43d
000000b0: bb61 833d a148 31bd 1569 6d3d dd10 b03c
000000c0: 42b8 353d 4c7e 4ebd c6ed bdbd 7dd6 04bd
000000d0: e9fd 7abd f481 8c3d fa00 df3c df0a 2e3d
000000e0: 6876 183d 0b21 ef3a f145 8f3d dd33 83bd
000000f0: 484b ad3b 063d 77bd 3c6a 103d 72a6 00bd
00000100: 5625 d03c 3b57 97bc a49c 943d 16e2 47bd
00000110: cd49 43bd beae 31bd 716c be3d fb38 1e3d
00000120: a9f3 c23d a920 8abd 5e90 a0bd bc45 96bd
00000130: fe4c 6fbd 036b 123d 0d20 1f3d 1b8e 943d
00000140: 5702 37bd 8a8f 6abd c938 5f3d b1ef 27bd
00000150: 29d1 5b3d 72bf a6bc ba75 743d d58d 74bd
00000160: b11a 0cbd 9d58 f03c b887 e53c aa05 80bc
00000170: 9326 7a3d a669 783d 4244 84bd a21f 35bd
00000180: 2beb a43d 0e98 cbbc a1d5 04bd f927 9fbd
00000190: aff9 3dbd c55d 0f3d e65b 48bc 165d 5ebd
000001a0: ce1b 2e3c 4316 7bbd de73 93bd aca4 4abd
000001b0: f536 a1bd 2511 67bd 0f17 b53d a17a b53c
000001c0: 5aa3 c73c f70f 9fbd e7cb 64bd 8891 c2bc
000001d0: 967f 7e3c 48f1 96bd 5dea 1abd a529 42bd
000001e0: b93c ce3b d116 08bd d582 cebb d732 81bd
000001f0: 9460 7abd ee7e 54bd ad55 e9bc 09d6 6ebd
00000200: bc19 a23d 59c4 47bc ae0c 953d c35b f43c
00000210: 632d 96bd a184 8b3d b264 a8bc e353 bebc
00000220: c22b 8ebd fa0e a9bd fa1d d33c 785b 92bc
00000230: 119e 103d 7f48 78bd 9b36 983d 5db6 65bd
00000240: 094d 81bc 3340 da3c 2559 453d fb87 a13d
00000250: 970c a93d db55 89bd f955 dd3c 9374 1fbd
00000260: 33a2 3bbb c368 6abd 0df1 a83d 8125 83bd
00000270: 8bbf 403d 28fc 083d ebaf 193d 5e00 4fbd
00000280: ab4e ae3d e727 d63c c9aa 603c 134f 9cbd
00000290: 8480 1f3d 5068 24bc 6e82 45bd f8dd 993d
000002a0: 000a b13c ba7f 1abd 2548 12bd 8392 09bb
000002b0: 48a8 803d a972 ddbc 505e 2dbd f741 cebc
000002c0: 8ee0 83bd 5a99 163d 9a54 753d 0256 a7bd
000002d0: 3b4f d53c dd78 2a3d 5134 8d3c e8bc d6bc
000002e0: 2355 683d d477 4e3d b542 0b3d 8783 95bc
000002f0: 4f3f babc 230a 2b3c cca0 11bc 86bf dcbc
00000300: 9923 623d e672 9b3d a123 17bc ef0c 8bbc
00000310: 1293 a63b e447 563b 6220 123d 038d 083d
00000320: fcd7 8cbd 8c8c dbbc 7409 aa3d 9744 f13c
00000330: 6580 79bb b04d 59bd 7881 3ebd 1e29 a5bd
00000340: 66c6 e4bc d1f1 fd3c e371 823d fcb6 0b3d
00000350: cedb 9fbd f5e1 59bd 5ae6 98bb d7b1 c53d
00000360: bab7 b73c ade4 b1bc b22f 393d 1d36 e3bc
00000370: 7d8b 45bd 3057 843d fe49 27bd ba10 84bc
00000380: be86 b1bd 5914 813d ccd3 843d d924 213d
00000390: 6d09 63bd 3d44 98bd 5a62 96bd fe69 983d
000003a0: 064a 513d 2538 9e3d cfee 543d ba77 b03c
000003b0: b2b2 bfba c6cb 8abd 66f1 9abd f71d 9dbd
000003c0: d246 0e3d bcd3 1dbd 9001 43bc 2f86 3ebd
000003d0: 9dd5 89bc c933 6fbd 4d7e 77bd 1ac6 113d
000003e0: 437e a1bc 9019 5a3d c706 edbc 95e0 86bd
000003f0: 2272 79bc e761 30bd 6f50 d7bc 2af5 95bd
0.07292979 0.07732172 -0.024307676 0.083068945 -0.019176366 0.026189145 -0.04343583 0.06233373
0.08238994 -0.0585785 0.07729441 0.018019084 0.06638227 0.023943622 0.051388673 -0.0029984743
0.06735116 0.018184932 -0.04161777 0.029387565 -0.04208225 -0.007447396 -0.03122884 0.05629389
-0.06297351 -0.030040706 -0.022625428 -0.05284089 0.00806684 -0.084356904 0.08798077 -0.07952112
0.07150213 0.020998022 -0.027237598 0.057161547 0.01639907 0.07392844 0.0018946906 -0.02839813
0.023888595 -0.013340655 0.04786308 0.08036035 0.06415125 -0.043282155 0.057961542 0.021492416
0.044365175 -0.050413415 -0.09273867 -0.032431114 -0.061277304 0.06860724 0.027222145 0.042490836
0.037222296 0.00182441 0.06995762 -0.064063765 0.0052885152 -0.06036093 0.035257563 -0.031408735
0.025408428 -0.018474212 0.07256439 -0.048799597 -0.047677804 -0.043379538 0.09298027 0.03862856
0.09519131 -0.06744511 -0.07840036 -0.073375195 -0.058423035 0.035746586 0.038848925 0.07253667
-0.044679966 -0.057265796 0.054497514 -0.041000072 0.053666268 -0.02035496 0.059682585 -0.059705574
-0.034205142 0.02933913 0.028018817 -0.0156277 0.061071943 0.06064763 -0.06458332 -0.04421962
0.08052667 -0.024852779 -0.032430295 -0.07771296 -0.046380695 0.035001535 -0.012228942 -0.054287992
0.010626746 -0.061300527 -0.07199834 -0.04947345 -0.0787181 -0.056412835 0.08842289 0.0221532
0.024369884 -0.07766717 -0.05585852 -0.023751035 0.015533349 -0.073702395 -0.037821162 -0.047402997
0.00629386 -0.033224884 -0.0063022175 -0.06308525 -0.06112726 -0.051878862 -0.028483236 -0.05830959
0.07915065 -0.012192809 0.07277809 0.029828912 -0.073328756 0.06812406 -0.020555828 -0.02323336
-0.0694194 -0.0825481 0.02577113 -0.017865881 0.035306994 -0.060616013 0.0743229 -0.05608212
-0.015783804 0.02664194 0.048180718 0.07887264 0.082543544 -0.06705829 0.027018534 -0.038929533
-0.0028630614 -0.057228815 0.08249102 -0.06403638 0.04705767 0.0334436 0.037521284 -0.05053746
0.085110985 0.026142074 0.013712593 -0.0763227 0.03894092 -0.010034636 -0.04822009 0.0751304
0.021611214 -0.037719466 -0.035713334 -0.0020991869 0.06282097 -0.027032213 -0.04232627 -0.025177939
-0.06439315 0.03676734 0.059895135 -0.081707016 0.026038757 0.04161917 0.01723686 -0.026213124
0.056721818 0.050407246 0.033999164 -0.018251194 -0.022735266 0.0104394285 -0.008888435 -0.026946794
0.05520973 0.075902745 -0.009224803 -0.01697394 0.00508345 0.0032696659 0.035675414 0.033337604
-0.06877133 -0.026800416 0.08302584 0.029451651 -0.0038070914 -0.053052604 -0.04651019 -0.08064483
-0.027926635 0.030999096 0.063693784 0.034110054 -0.07805596 -0.053194005 -0.004666132 0.09653061
0.022426475 -0.021715486 0.0452115 -0.027735764 -0.04822873 0.06461942 -0.04084205 -0.016121257
-0.08668278 0.06302709 0.064857095 0.03934178 -0.05542891 -0.074348904 -0.07342978 0.074420914
0.051095985 0.077255525 0.051985558 0.021541465 -0.0014625399 -0.06777148 -0.07565574 -0.07671731
0.03473551 -0.038532004 -0.011902228 -0.046514686 -0.016825492 -0.058398996 -0.060423184 0.035589315
-0.019713527 0.053247035 -0.028933896 -0.065858044 -0.015224965 -0.043062117 -0.02628347 -0.07322152

lstm.weight_hh_l0 f4 [512, 128]
00000000: c85e 623d a49c 4bbd 9cfc e1bc 536f bfbd
00000010: d4aa 833d cb23 d3bd ddde 183d 85b6 c1bc
00000020: 7a8d 5c3c a0e5 973d 728d 94bc 42ae 1a3c
00000030: c818 403d 3538 83bd d0bd 553d 8890 ccbb
00000040: 7183 693a dd94 583b d49d 133c 5cbe 63bd
00000050: 26d5 7ebc d8c1 803d a0be 0b3d 992b d7bc
00000060: 6e64 83bd bf4f aabc ad3c 71bd 501a b03d
00000070: f9a9 83bd d05d 843b 0504 0dbd b801 c03c
00000080: 739c b03d 43e3 4abb 140e 2e3d 564a 733d
00000090: 5e6f b13d 8a98 cfbc 3eda 03bc a87a 213d
000000a0: ca73 8cbc 4f57 463d 194b c5bc bd1b 46bd
000000b0: adda 413d 6b04 14bc 98fd 6d3d a567 603d
000000c0: 4227 c43d 865d 8a3d 2158 113d 6663 d6bd
000000d0: 6043 a3bd f8b9 8ebc 8215 8abd 552a e1bc
000000e0: 60e1 9ebd c371 e0bd d558 efbd b67d e9bd
000000f0: 5acf cdbd c09c 873c 4dd1 6d3d 1ffa bbba
00000100: 94ed 79bd 3538 a93d 60b9 72bc d85b 75bd
00000110: dab0 fd3c b8f7 d9bd 5f26 5fbc 79e5 823d
00000120: eb81 023d 4696 483d 08f2 c6bc 2c26 2dbd
00000130: b733 133d 4aff 653d dc34 3e3d c896 b23d
00000140: b234 c3bd d7dc d13b fa15 52bd 1509 43bd
00000150: b49e 0bbd b414 86bd a4cc 443d 32b1 103d
00000160: 4b79 39bd 3627 283d 766c 8cbd e3cc 61bd
00000170: 97af 50bd b26a a6bd 1dac 84bd 5b16 d9bb
00000180: 8c0c 733d 51ef e13d 180a ac3d 62a4 4dbd
00000190: 40ad adbd 3dea 663d 7a2b 1a3d f4fa d13c
000001a0: 3ea3 df3c c95b c3bd 0827 b3bc b6a0 bb3d
000001b0: 7015 d1ba b500 c53c aef3 dfbd 3ddb 11bd
000001c0: 06c9 da3c f888 6dbd 4b0e 62bc d0ad 633d
000001d0: db8b b4bd cd04 2e3d 4896 1abd 8d6e debc
000001e0: 59be cd3c d269 573d 4b9b c2bc 1124 43bd
000001f0: fe01 bebd 7a5d 53bd 2dcf 7fbd 4d77 5fbc
00000200: 0714 763d c526 40bd 190e 923d 1c48 993c
00000210: a1c8 e7bd d84a a8bd a352 46bc 4e44 49bd
00000220: 6782 ba3c 8c39 c3bb f9f2 373d 0e35 d5bd
00000230: d059 343d df0f e5bc b3ca 933d d235 da3c
00000240: 7e09 1cbc 464e b0bd b47d 5cbd b32e d63d
00000250: 8afb 50bc aff4 1fbc 85b4 0abe 8bad 7b3d
00000260: 76bd 983d 9e6b efbc cbc6 a43c e46d 89bc
00000270: 774a 493d e424 bfbd 64b0 1bbd 5057 f83c
00000280: a1e0 633d 260e e63b cf37 3abd 77c8 203d
00000290: 7136 14bd 0888 6d3c e746 bdbd 6ef4 6abc
000002a0: 6d24 cf3d e80a 443d b162 c6bd 9544 5a3d
000002b0: 8ad5 863c 7601 bc3d 8842 08bd 7c02 86bd
000002c0: cdee e0bc a8ea 87bd ca69 9f3c 7cca 9c3d
000002d0: 3c97 1b3b 8b63 f83d a51e 093d 3887 a43d
000002e0: 258d fc3d 0f08 f33c f3bc 37bd 1926 bb3d
000002f0: 31ff 453d 66aa 8cbd 86ba 93bd 187f b3bd
00000300: 28e8 ddbb 447b 77bd 16a6 013d b912 5a3d
00000310: c47c f8bd ff4c aabc 556b 74bd ed39 ce3b
00000320: 79ae d03d 6704 55bd 025d ff3d fd52 bb3d
00000330: 13d4 403c 1d00 a2bd a9fe afbd 3ea3 adbc
00000340: 56f8 2abd efc8 953d 59b9 70bb f3a3 753d
00000350: 6869 04bd 9615 293c 2f35 99ba 39ad bdbc
00000360: 061e f8bd 2607 7ebc 9dfe d13d 4d5e ecbd
00000370: 14ae e0bd 0db9 803d e265 653d 679d ac3d
00000380: bcdc d6bd d263 dabc e41b a43d ed1d ee3d
00000390: f6e1 063d 1fcf 11bd f521 ff3c 60e2 f83d
000003a0: 056e 24bc 62fc a5bb 0765 c93d a8c8 7bbd
000003b0: 54ea 7bbd e62b b63d 785b f4ba a3f0 923d
000003c0: 3d4d e8bc fa91 143d fdd6 373d 3db0 62bc
000003d0: 73f1 99bc 626c 903c 81cd 8dbd bc22 fe3d
000003e0: e1d8 a1bd 0211 c3bc 7483 4abc da8f 33bd
000003f0: 9f7a e3bd b9ba 113d bcb7 4e3d f9f0 ecbc
0.05526617 -0.04970993 -0.027586274 -0.09347405 0.06429067 -0.10309561 0.037321914 -0.023646602
0.013461465 0.07416844 -0.018133853 0.00944096 0.046898633 -0.06407205 0.052182972 -0.0062428154
0.0008907831 0.0033047714 0.009009797 -0.055601463 -0.015553748 0.06286973 0.03411734 -0.026265906
-0.0641564 -0.020789979 -0.058895756 0.08598769 -0.06428904 0.0040395036 -0.03442766 0.02343832
0.0862359 -0.0030958212 0.042493895 0.059397064 0.0866382 -0.025341291 -0.008047638 0.039423615
-0.017145056 0.048423108 -0.02408366 -0.048366297 0.047327686 -0.009034256 0.058103174 0.054786343
0.095778 0.067561194 0.035484437 -0.104681775 -0.07971835 -0.017422661 -0.067423835 -0.027486006
-0.077578306 -0.10959198 -0.11686865 -0.114009306 -0.10049315 0.016554236 0.058060933 -0.001434151
-0.061017588 0.08262674 -0.014814705 -0.059902042 0.030968118 -0.10642952 -0.013619988 0.06391425
0.03186218 0.048971437 -0.024285331 -0.04227273 0.03593799 0.056151666 0.04643713 0.087201655
-0.09531535 0.0064045 -0.05129049 -0.047616083 -0.034086898 -0.065469176 0.048046723 0.035325237
-0.04528169 0.04105302 -0.06856625 -0.055127036 -0.050948706 -0.08125819 -0.064781405 -0.0066249794
0.059338138 0.11031974 0.08400363 -0.050205596 -0.084803104 0.05637573 0.03763912 0.02563236
0.02729952 -0.09538991 -0.021869197 0.091615126 -0.0015951823 0.024048189 -0.1093515 -0.035609473
0.026707184 -0.05799195 -0.013797353 0.055585682 -0.08815738 0.042485047 -0.037740976 -0.027152324
0.025115179 0.052591152 -0.02375569 -0.047641817 -0.09277724 -0.051602818 -0.062453438 -0.013639283
0.060077693 -0.046911974 0.07131595 0.018711142 -0.11317564 -0.082174 -0.012104663 -0.049137406
0.022767259 -0.005957788 0.04490945 -0.1041051 0.044030964 -0.02796167 0.07216396 0.026636992
-0.0095237475 -0.086086795 -0.053830817 0.10458126 -0.012755284 -0.009762927 -0.13545425 0.0614448
0.07458012 -0.02922612 0.020114323 -0.016776033 0.04914328 -0.09333208 -0.038010016 0.030315071
0.055634145 0.0070207296 -0.04546338 0.03925368 -0.036184732 0.014497764 -0.09242039 -0.014340503
0.101143695 0.047861964 -0.09686793 0.05328806 0.016459245 0.09179966 -0.033266574 -0.065434426
-0.02745762 -0.06636554 0.019459624 0.07655808 0.0023741266 0.12128361 0.03347649 0.080336034
0.12331609 0.029666929 -0.04485793 0.09138126 0.048339073 -0.068684384 -0.07213311 -0.087644756
-0.00677206 -0.06042029 0.031652533 0.05324051 -0.12133172 -0.020788668 -0.059672672 0.0062935264
0.10189528 -0.05200615 0.12468912 0.09146688 0.011769312 -0.07910178 -0.085934944 -0.021196004
-0.041740738 0.07313716 -0.003673157 0.059970807 -0.032327086 0.010320088 -0.0011688824 -0.023153888
-0.121151015 -0.015504634 0.10253642 -0.11541424 -0.10970703 0.06285296 0.056005366 0.084284596
-0.104913205 -0.026658926 0.08013132 0.11626802 0.032930337 -0.035597917 0.031144122 0.121525526
-0.010035996 -0.0050654868 0.098337226 -0.061470658 -0.06150277 0.08895092 -0.0018642982 0.07174804
-0.028357143 0.036272027 0.044882763 -0.013835964 -0.01879189 0.017629806 -0.069239624 0.12408969
-0.079026945 -0.02381182 -0.012360442 -0.04383836 -0.111073725 0.035578463 0.05046819 -0.028923498

lstm.bias_ih_l0 f4 [512]
00000000: 379a 793c dd6a 913d 38d4 d03d 12b1 c9bd
00000010: 6954 3fbd 9e85 b93c 1967 0bbd b488 0a3d
00000020: e0c5 663d 244d 3ab9 b242 b2bd cd42 b13c
00000030: ae78 9a3d fa8f 16bd cf46 3f3c c5b2 683c
00000040: df77 033d b0cb 5c3c 033e 5a3c 1852 a3bd
00000050: 149e d1bc b754 8bbc 8d4d 0ebd 0f38 1f3d
00000060: f3a5 6bbd ac41 d8bd e2f1 5ebc 2bac a0bb
00000070: 7e69 80bd 8dfa bebd d899 783d 116b 02bc
00000080: 8a49 663d a4dd 883d 0bf7 883d e654 71bd
00000090: b86c 83bd 4f1a d7bc 751f a13d a7ee 9f3d
000000a0: 50b0 a13d ec12 4a3d 2082 d33b 1ffb d63d
000000b0: a8eb 013d cf6d e1bc 70d7 acbc f3b4 403c
000000c0: 24dc 6a3d b872 2ebd 2cf8 d83d f311 103d
000000d0: d1b2 92bd 09f7 d3bc 6192 963d f553 af3d
000000e0: cd21 133d 43b3 9b3c c462 a43c d909 8bbc
000000f0: 4e4c d33b 5f11 b7bc 9348 163c 5c21 743b
00000100: 6075 a53d f353 e43b a315 8f3d 080f ab3d
00000110: 0f66 823d e59c 0cbd e255 653d 85ed a5bd
00000120: 3a9c b13d 1a1c 8bbd d8ff 643d 1360 55bd
00000130: a558 3e3d 0c04 a9bc 21a6 a7bc 3201 9e3d
00000140: f017 07bd 7e12 063d d612 a23d 2d65 823d
00000150: 5bc3 6f3c d242 cb3c e7a5 373b 9c36 70bd
00000160: 42b6 a3bd 23a4 933d 7198 8abc a72f 463d
00000170: a336 b23a 0a70 a4bc 2dbf 61bd 324d 8cbd
00000180: 90f2 4bbd e7f9 d0bc 7184 a33d ce5d fe3c
00000190: 503a c13c 4eff 82bd f5ab 4abd 8774 e23c
000001a0: 3ed7 eb3d e566 27bc ac41 523c 1b25 a33d
000001b0: a78d 513b 3c65 18bc 8225 393d 6ddc 9a3d
000001c0: b230 593d 675a 733d 0d3b 3d3d 9b28 9ebd
000001d0: e4f2 04bd e720 aebd 3f1c 46bd c495 5c3d
000001e0: 650c 8bbd 1e3a 8d3d 17ad 34bd dbd0 4b3d
000001f0: aecd c8bc 769b 253d ee3e 463c 18c7 303d
00000200: dc3c 7ebd 99bb 51bc 6883 8f3d 3754 f43b
00000210: 723c 7ebb 631c 1fbd 415b 41bd 4ffb 0bbd
00000220: 32ee a43d 2744 483c beb0 f6bc 2b43 a23d
00000230: ed7e cb3d 739a 733d 47b5 573d cb8f 08bd
00000240: c3ad 543d 3e3e a6bd fa26 09bd 81c5 8e3c
00000250: 77d6 0fbd ca8d 3bbc 6c5d 4c3d 1c50 afbd
00000260: 3db4 9dbd ee41 84bd cd99 b9bd 9538 ce3b
00000270: fb59 543c 5b18 d63b 2a24 a13c d7ce a1bd
00000280: 2106 503d 1a40 37bd d12d e6bb 42dd b4ba
00000290: d859 aabd 13b2 5ebd ae75 87bd 5cd0 cb3c
000002a0: 694c 81bc 43cd a43d f057 a33d 1054 ad3d
000002b0: 20c5 593d e01b 5a3c 186f bcbd a25e 88bb
000002c0: 7b5d 823c 5641 6fbd f19d 9a3d 66ed 54bc
000002d0: 4bea acbd a2aa 803d 1477 d23d aa29 b2bd
000002e0: 28f9 8abd 29b0 143c 54c5 5a3d 0a9d b13d
000002f0: 3001 193d 7044 f33b 72a8 c2bd dca9 95bd
00000300: b407 f9bc be38 66bd 8ecf 9d3a f4a5 92bd
00000310: 6f6d b83c 7853 e6bb d870 b13d 1270 173d
00000320: 7b6d 2c3d 0cb2 3fbd ae98 c5bc f122 613d
00000330: 0f39 8d3c c00d 063d dcec 3f3c 6696 fc3c
00000340: 1ef9 31bd 7e5e ba3d d48c edbc c577 a53d
00000350: f6de 343d b264 95bd 41be 1ebd a5e0 8d3d
00000360: a019 6e3d b3c7 56bc 85e2 7bbc 59a5 d13d
00000370: c816 653d 52e5 84bd b296 a93d bd34 d23d
00000380: 4a45 473d 662d 84bd a147 76bc 3de5 71bb
00000390: 9863 fbbc d6ef 373c b521 b63d 4f01 e63d
000003a0: ac9c adbc da1a 0dbd 2693 cdbd 3289 2b3d
000003b0: eb5d 2f3c 2c78 cebc 1f63 113c 3c0f 84bd
000003c0: 2ac6 6f3d 2059 0e3c b46f bfbd 4533 633b
000003d0: c79c 5cbd 029b 2dbd a347 11bd 6ae6 133c
000003e0: 0250 79bd 8fb3 58bd dc42 7cbd 3d7c 183c
000003f0: 77bd 1d3d 93c4 08bd 4f22 1c3d d50d 6cbb
0.015234522 0.07100461 0.101967275 -0.098482266 -0.04671136 0.022646721 -0.03403387 0.033821777
0.056341052 -0.0001776708 -0.08704127 0.021638298 0.07542549 -0.0367584 0.011674597 0.014202778
0.03209674 0.013476297 0.013320449 -0.079746425 -0.025588073 -0.017008169 -0.034741927 0.03887182
-0.05753131 -0.10559401 -0.013607474 -0.0049033365 -0.06270121 -0.093251325 0.06069359 -0.007960097
0.056222476 0.066828996 0.06687745 -0.058918856 -0.06417221 -0.026257662 0.07867328 0.07809191
0.07894957 0.04933445 0.006454721 0.10497116 0.03171888 -0.027518181 -0.021098822 0.011761892
0.05733885 -0.042589873 0.1059421 0.035173368 -0.07163013 -0.025874631 0.07352138 0.085609354
0.035920907 0.019006377 0.020066626 -0.01697247 0.006448305 -0.02234715 0.0091725765 0.003725133
0.08079028 0.0069680153 0.06986549 0.08352476 0.063671224 -0.034329314 0.055990107 -0.08101944
0.08672376 -0.06792469 0.055908054 -0.052093577 0.046471257 -0.020631813 -0.020464959 0.07715072
-0.032981813 0.03273248 0.07913749 0.06366954 0.014633979 0.024812136 0.002802247 -0.05864583
-0.07993747 0.07209041 -0.016918393 0.04838529 0.0013596605 -0.020072956 -0.05511396 -0.06850661
-0.049791873 -0.025509788 0.079842456 0.031050589 0.023587376 -0.06396352 -0.049480397 0.027643455
0.115156636 -0.010217403 0.01283304 0.07966062 0.00319753 -0.00930148 0.045201786 0.07561574
0.053024955 0.059412386 0.046198893 -0.07722589 -0.0324582 -0.085023694 -0.04836678 0.053853765
-0.067894734 0.068958506 -0.044110384 0.049759727 -0.024512138 0.040431462 0.012099965 0.04315862
-0.06206976 -0.012801074 0.07007486 0.0074563283 -0.0038793352 -0.03884543 -0.047206167 -0.034175213
0.08053245 0.01222328 -0.030113574 0.079229675 0.099363185 0.059473466 0.052663114 -0.033340257
0.051923525 -0.081173405 -0.033484437 0.017428162 -0.03511664 -0.011447379 0.04989378 -0.085602015
-0.07700393 -0.064578876 -0.09062538 0.006293366 0.012960906 0.006533665 0.019670565 -0.0790078
0.050787095 -0.044738866 -0.0070245047 -0.001379885 -0.083179176 -0.054369044 -0.066142425 0.024879627
-0.015783506 0.08046963 0.07975757 0.08463299 0.05316651 0.01331231 -0.09200877 -0.0041616717
0.015913716 -0.05841192 0.07549656 -0.012996053 -0.08443125 0.062825456 0.102766186 -0.08699353
-0.06785804 0.009075203 0.053410843 0.08672531 0.037354648 0.00742393 -0.09504785 -0.07307789
-0.030399181 -0.056206457 0.0012040006 -0.07160559 0.02251312 -0.007028993 0.08664101 0.036972113
0.042096596 -0.046800658 -0.024120655 0.054964963 0.017239122 0.032727957 0.0117141865 0.030833434
-0.043450467 0.09100054 -0.028997816 0.08079485 0.044157945 -0.07294597 -0.03875566 0.06927613
0.058129907 -0.013109135 -0.015373831 0.10236616 0.05592993 -0.06489052 0.08280696 0.10263965
0.048650064 -0.064539716 -0.015031726 -0.0036910318 -0.030687138 0.011226615 0.08893148 0.11230718
-0.021192871 -0.034449436 -0.10037832 0.041878887 0.010703544 -0.025203787 0.00887373 -0.06448218
0.058538593 0.008688241 -0.093474776 0.003466801 -0.053860452 -0.042384155 -0.03546871 0.009027103
-0.060867317 -0.052905615 -0.0615872 0.009306964 0.038510766 -0.033390593 0.038118657 -0.0036018987

lstm.bias_hh_l0 f4 [512]
00000000: e262 8e3d 7975 99bd ac4b 923b 4bbe 0a3d
00000010: 6b34 463c a98d 14bb f16d 9e3d 6e23 c0bc
00000020: 505c 633d 8a2b 87bd 32c9 7ebd 72c3 b2bd
00000030: 89ba 463d 36af ef3c 6e45 483d 718d 7f3c
00000040: 030f 513c d883 463d 1aae 79bc a99a 42bd
00000050: 3a8f fcbc 7e0f 0abd 1fcd cebd ab3a 093d
00000060: 52b3 cdbc c948 9e3b 2eaa 72bd 51ee 5dbd
00000070: 755d 573d 0b8d c03c a574 96bb 3321 423c
00000080: 6f06 36bd f8c1 5ebc aa42 5d3d ca8c 94bd
00000090: a7e2 88bc dfcf aa3d eef3 a9ba d993 89bd
000000a0: 585c 9b3d 4bda 8c3d cac2 aabd f26a 8c3c
000000b0: ad76 8abd c39f 733d 2e5a f9b9 7196 853d
000000c0: 857e e93c 79ef 84bb 6af7 d43d b737 99bd
000000d0: 88b7 90bd 10c6 0f3d 80de b1bc e9fc 833d
000000e0: 0dc0 b3bb a6d1 263d b6d6 6e3d 4fc4 563c
000000f0: 9673 a0bd 02af 53bd 071b a8bd 86cc d13c
00000100: 5653 4a3c 73d0 9dbd d88e 99bd a3ec 853d
00000110: 0485 8cbd 14ea 4c3c b38e 643b 2ffd cdbc
00000120: b799 94bd 63c9 49bd 5171 7fbd 67c8 df3c
00000130: 3585 1d3d e1cf 1dbd fc91 0abd 18b8 6c3d
00000140: d131 0bbd a7b5 493c c2c5 233d 5e55 a33d
00000150: d9d5 13bd bc92 a6bc 73c7 cf3c 1881 7dbd
00000160: 5b03 dbbc 1e70 b2bd fd34 4cbd 167a 31bd
00000170: 109a cdbc ee6b 813d 38d9 88bd 6893 863d
00000180: 9497 a6bd ac8d be3d 51ee f3bb efa5 86bd
00000190: d5e7 37bc dc6a b5bd 6f7c 88bd 47fa 0dbd
000001a0: 36a8 debc 7243 933d 3121 eebc 3a61 0abd
000001b0: 6ac4 3b3b 478a bbbc e690 9b3d 928b 573d
000001c0: 2119 623d 0dcc b23b 9c73 42bd 0310 3cbd
000001d0: 1fe5 8b3d 736e 8a3c 94a1 e0bc e1b9 783d
000001e0: 3426 d03b 89f2 45bd 46cf 82bd 5ac9 023d
000001f0: 497d 48bc 3647 753c e415 253d bce3 a1bd
00000200: 5595 84bd a5fb c1bd c33d 553d 59bc c63c
00000210: 9a37 13bd e6c7 8bbd 2445 253d 403f 8ebc
00000220: 86e8 8bbd 3e16 813c 07f9 21bc b39d f63c
00000230: 8936 5a3d 6dc7 9cbc 7fad 84bd 584f 46bd
00000240: 6b4d 6c3b a2cb 863d 3f23 853d fd38 583d
00000250: 8673 d6bd 9547 46bd 6514 edbc 1e37 96bd
00000260: 39d4 f7bc c227 f4bc dac6 9fbc 9a6c 883d
00000270: 3258 93bd 1d44 1d3c 0a45 9dbd 5d1d 28bd
00000280: 1164 233c 30c3 1d3d ab52 85bd 9c94 88bd
00000290: f903 5bbd c576 13bd 3785 a73d b05f 50bd
000002a0: 857e 8f3d 9099 c0bb 8512 48bd afdf 4cbc
000002b0: 13df 553d e92c 3e3d d473 263d 516b 60bd
000002c0: 14e2 983d 3b59 eebc a39d 3d3d 9f16 c93c
000002d0: 3422 89bd c3b0 763d 164e c03b 91f6 b5bd
000002e0: 9d5f f63c bcec 9cbd e0a7 c6bd 9910 603d
000002f0: 64ed c0bd f448 13bd f855 bd3c 4788 a93d
00000300: 03ef 65bd fd7c 013c 0285 27bc c671 d83c
00000310: 1e15 a63d 0ff2 cabd 773b 68bb 8c48 e23c
00000320: 5505 27bd 191c b7ba c1f5 06bd da13 613c
00000330: 0b94 6abc 5acb 4f3d 6845 093d 6601 53bd
00000340: c389 65bd 677f d13d 92af 90bc e9ad 8c3d
00000350: 49a1 52bd fcbb 30bd 1495 0abc be2d bf3c
00000360: 970f 473d 7c8c 003d d438 9a3d ff04 59bd
00000370: 6a1d 083d 3142 1c3d 9a76 03bd 6b80 793c
00000380: fa84 89bd 4925 de3c 7704 d1bc 2f13 a1bc
00000390: 9e9f 923c ff65 183d 53af 6ebd 4fd2 1cbd
000003a0: 8b9f b83d ac37 153d 4c47 b0bc e0a5 de3c
000003b0: 43dc 673d c422 43bd f753 8fbd cfa6 84bd
000003c0: 8af2 2fbc 275f 18bd 89e0 8ebd e884 63ba
000003d0: 69a0 953d b70f 803d 788c d8bb df41 98bd
000003e0: eb51 283d 0377 7ebc 1fa0 abbd 42a2 193d
000003f0: ea0c 83bd 2fb6 7b3d a512 a23d eeea bebc
0.06952454 -0.07493109 0.004464587 0.033872884 0.012097458 -0.0022667444 0.077358134 -0.023454394
0.055507958 -0.06600101 -0.062203594 -0.087286845 0.048517738 0.029258352 0.04889434 0.015597687
0.012759927 0.04846558 -0.015239263 -0.047510777 -0.030830014 -0.03370618 -0.100977175 0.033503216
-0.02510992 0.004830454 -0.059244327 -0.054182354 0.052579362 0.023504755 -0.004591542 0.011848736
-0.04443973 -0.01359605 0.054018654 -0.07253416 -0.016709639 0.083404295 -0.0012966373 -0.06717653
0.075859725 0.068775736 -0.08337934 0.01714084 -0.06760917 0.059478533 -0.0004756017 0.06522835
0.028502712 -0.0040568677 0.10398753 -0.0748133 -0.07066256 0.035100996 -0.021712542 0.06444723
-0.0054855407 0.04072728 0.058310233 0.013108327 -0.07834546 -0.051680572 -0.0820828 0.02561022
0.01234897 -0.07705774 -0.074979484 0.065392755 -0.06861308 0.01250698 0.0034875094 -0.025145141
-0.07255881 -0.049264323 -0.062363926 0.027317239 0.038457114 -0.038528327 -0.033830628 0.057792753
-0.033983056 0.012311376 0.03998352 0.07975267 -0.036092613 -0.02033364 0.02536366 -0.06189069
-0.026734998 -0.08712791 -0.04985522 -0.04332932 -0.025097877 0.06319414 -0.06682056 0.06571084
-0.0813438 0.093043655 -0.007444181 -0.06574618 -0.011224707 -0.088582724 -0.06664359 -0.03466251
-0.027179819 0.071905985 -0.029068561 -0.03378413 0.0028651007 -0.022893084 0.075959966 0.05262334
0.055199746 0.0054564537 -0.047473535 -0.045913707 0.06830811 0.01689837 -0.027420796 0.060724143
0.0063522104 -0.048327003 -0.063871905 0.031930305 -0.012236902 0.014970591 0.04030408 -0.07904765
-0.06473795 -0.094718255 0.052060854 0.024259733 -0.035941698 -0.06825237 0.04034914 -0.017364144
-0.0683146 0.015757676 -0.009886033 0.030104494 0.053274665 -0.019138062 -0.06478404 -0.04841551
0.0036056887 0.065818086 0.06500863 0.052788723 -0.10471253 -0.04840811 -0.028940389 -0.073347315
-0.030252563 -0.029804114 -0.019504 0.06661339 -0.07194556 0.009598759 -0.07679184 -0.041043628
0.009972588 0.038516223 -0.06509908 -0.0666897 -0.053470585 -0.03600194 0.081797056 -0.050872505
0.070065536 -0.005877681 -0.048845787 -0.012504502 0.052214693 0.04642955 0.040637806 -0.054789845
0.07464996 -0.029095283 0.046292912 0.02454692 -0.06695977 0.060227167 0.0058686836 -0.088849194
0.030074889 -0.07662341 -0.09699988 0.05470333 -0.09420279 -0.035958245 0.023112282 0.08277946
-0.056136142 0.007903335 -0.010224583 0.026421439 0.081094965 -0.0990945 -0.0035435834 0.027622484
-0.04077657 -0.0013970166 -0.032949213 0.013737643 -0.014317523 0.05073104 0.033513457 -0.051515006
-0.056039583 0.10229378 -0.017661843 0.06869108 -0.051423345 -0.043148026 -0.008458395 0.023337241
0.048598852 0.031383976 0.0753037 -0.05298328 0.033231176 0.038149063 -0.03209553 0.015228371
-0.067148164 0.027117388 -0.025514824 -0.019662468 0.017898377 0.037206646 -0.05827267 -0.038286503
0.090148054 0.036430046 -0.021518372 0.027178705 0.056606542 -0.047640577 -0.06998437 -0.06477129
-0.010738978 -0.03720012 -0.069764204 -0.00086791674 0.073059864 0.06252997 -0.006608542 -0.07434439
0.041093748 -0.015531304 -0.0838015 0.037508257 -0.063989475 0.06145304 0.079137124 -0.023305383

batch_norm.weight f4 [128]
00000000: b978 7e3f 16f5 7e3f 95eb 7f3f 5187 7f3f
00000010: 3e0d 803f 832b 803f 92be 7d3f c52b 7b3f
00000020: 5aa5 7f3f 48be 803f 85de 7e3f 82e7 7c3f
00000030: 71bd 813f 401e 803f c0d1 813f f345 7e3f
00000040: 7642 803f 0ed4 803f bc2c 7a3f 39c1 7d3f
00000050: ebd8 7e3f 180a 803f 0714 803f 75cd 803f
00000060: 4ec0 803f 7b61 803f 4a14 813f 4dba 7f3f
00000070: 88ff 7f3f f348 7e3f 2a7d 7f3f 274e 803f
00000080: 4594 7f3f 8359 803f 7d24 803f a706 7f3f
00000090: e18c 7e3f 34f7 7f3f 8fca 7f3f 47c4 813f
000000a0: 8845 803f 2710 813f 9750 803f 2c65 7f3f
000000b0: 1589 803f 54a0 803f b67a 7d3f 1025 7f3f
000000c0: 4175 803f 7fdb 7f3f 5ebb 803f 2799 7f3f
000000d0: 07bd 803f 4afa 803f d0df 833f 740f 813f
000000e0: d9dd 7f3f bb0a 813f ef24 803f 9caa 7f3f
000000f0: d04b 813f 5266 7f3f 00cb 7f3f 3a6d 803f
00000100: 8d38 7f3f 3471 823f 3666 803f af5c 803f
00000110: 451d 813f 0dad 823f d83f 863f 024d 7e3f
00000120: d4ee 7d3f 8e16 7e3f f51c 803f 6a54 813f
00000130: 26a2 7e3f b6a1 803f 585c 803f 74e3 7f3f
00000140: 4c41 803f f86f 813f a280 803f 0297 7a3f
00000150: ed74 803f 266d 7f3f a21d 7f3f 19a7 813f
00000160: 3071 803f b51a 7f3f 2e63 783f 70e3 823f
00000170: d23a 803f fe77 803f 982c 803f 9c5e 7d3f
00000180: 4d8f 7e3f 9df8 7c3f 2217 803f 2652 803f
00000190: 64fa 7f3f 1aeb 7e3f 3ae4 7f3f 7981 803f
000001a0: 791c 7b3f ffce 7f3f 0b7b 803f 17ef 7f3f
000001b0: 9bdd 803f 999d 7f3f 02eb 7f3f 647b 7f3f
000001c0: 7de2 7f3f bc72 813f 924a 7b3f c8ae 803f
000001d0: 1235 803f b95d 803f ada7 813f 406d 803f
000001e0: 36fa 803f 108a 7e3f cbc8 7f3f 8cdc 803f
000001f0: 9d3c 803f 327b 7f3f 16a9 843f ca04 803f
0.9940296 0.9959272 0.99968845 0.9981585 1.0004041 1.0013279 0.9911891 0.9811366
0.9986168 1.0058069 0.9955829 0.9879075 1.0135938 1.0009232 1.0142136 0.99325484
1.0020282 1.0064714 0.9772451 0.9912296 0.9954974 1.000308 1.0006112 1.00627
1.0058687 1.0029749 1.0084317 0.9989365 0.99999285 0.9933006 0.9980036 1.002385
0.99835616 1.0027317 1.0011135 0.99619526 0.99433714 0.9998658 0.99918455 1.0138024
1.0021219 1.0083054 1.0024594 0.9976375 1.0041834 1.0048928 0.9901537 0.9966593
1.0035783 0.999443 1.005718 0.99843067 1.0057687 1.0076382 1.0302677 1.0082841
0.9994789 1.00814 1.0011271 0.99869704 1.0101261 0.99765503 0.9991913 1.0033333
0.99695665 1.0190797 1.0031192 1.0028285 1.0087057 1.0209061 1.0488234 0.99336255
0.9919255 0.99253166 1.0008837 1.0103886 0.9946617 1.004935 1.0028181 0.9995644
1.0019927 1.0112295 1.0039256 0.9788667 1.0035683 0.9977592 0.9965459 1.0129119
1.0034542 0.99650127 0.97026336 1.0225658 1.001795 1.0036619 1.0013609 0.9897249
0.9943741 0.98816854 1.000706 1.002507 0.9999144 0.99577487 0.9995762 1.0039512
0.9809032 0.99925226 1.003755 0.999742 1.0067629 0.9984985 0.9996797 0.99797654
0.9995497 1.0113139 0.9816066 1.0053339 1.0016196 1.0028602 1.0129296 1.003334
1.0076358 0.99429417 0.9991576 1.0067306 1.0018498 0.99797356 1.0364101 1.0001462

batch_norm.bias f4 [128]
00000000: 2ae7 283b f7d9 90bc 8a47 9539 244b 8abc
00000010: b8ed 1738 7826 6e3b e4a4 e53c e36b 4cbb
00000020: 2622 b83b 82e6 333b 8944 7f3a 22d3 fbbc
00000030: 2e2b 96bc 1b33 b0b6 2365 63bb a4d6 83bc
00000040: 9e63 75b5 a258 4fb7 e679 153d 1fe6 00bd
00000050: 29bb ad39 5abd 4a38 ca61 e93c d0f3 903b
00000060: e2ac 89bb efdc 8dbc 1a06 d53c 448d ffb9
00000070: 85a0 3a39 00b0 babb 9d33 a23c 54a0 0ebb
00000080: 0c6b 71bc 47f3 0a38 1042 1ebb d6fc bc39
00000090: d04d 703c cdc1 40bb d37e 8c3b 39b6 03bd
000000a0: 8d0a bfb9 e889 5bbc 6fe1 bf3a 5069 3639
000000b0: 6732 d0bc 996f 46bb 3e55 b8bb 00b3 6d3c
000000c0: b178 19b9 f1a1 b9b5 21ee 563b bdd4 333b
000000d0: 9c1e 04b8 5e08 7bba 937a c83c 483c 41bc
000000e0: 8ba1 a9b8 b3e7 0e3b a18d c4bc 8f32 92bb
000000f0: 7119 a83c 1dc8 a839 bf4e 6c3c 9c71 203a
00000100: f0b0 5abb 1ec1 37bb ae5d 30bb 3b12 cebc
00000110: a6b3 a63a 9a44 a03b f161 86bc 25c1 5ebc
00000120: 03d8 afbc 089c d5b9 2b4e 70b8 c45d 2b3b
00000130: 17ee 893c ee65 833c fd57 6b3c 1dea b138
00000140: 6705 9bbc cf3c a73c 163e 023d 64a3 12bd
00000150: 5b57 183c b9d7 3b38 5417 a437 a0fb 9e3c
00000160: d8ea 103c f40a e03b 880f b8bb e19e 50bb
00000170: 824e a8ba 1fb4 63bc dab0 1cb9 aae5 e23b
00000180: 7450 713b bbc3 c53c 50a8 0ebc 1318 d7b3
00000190: 8d76 8d36 590f 2ebd 0f6a 94b6 4fd6 973a
000001a0: 126d 8dba edeb 1f37 831d 82b9 9fdf adb9
000001b0: e5ad 95ba 0023 1eb9 7c9d f2ba dc72 753c
000001c0: 742c b237 02be 523a 579e cfbb 05fa 5aba
000001d0: 26fa 883c d222 063c 082b debc caff bbba
000001e0: df83 023c bff9 c33b 1742 07bb bb21 6abb
000001f0: 0e30 7a3a 96c0 52ba 8d41 0abd 4f18 7937
0.002577255 -0.017682059 0.00028472795 -0.016881533 3.62226e-05 0.0036338847 0.028032728 -0.0031192235
0.005619305 0.0027450626 0.00097376906 -0.030740324 -0.018331137 -5.251158e-06 -0.0034697733 -0.01609356
-9.1414574e-07 -1.2358798e-05 0.036493205 -0.03146946 0.00033136577 4.83369e-05 0.028489012 0.004423596
-0.0042015174 -0.017317263 0.026003886 -0.0004874264 0.0001779814 -0.0056972504 0.019800002 -0.0021763043
-0.014734995 3.3128334e-05 -0.0024148263 0.00036046532 0.014666989 -0.002941239 0.0042875796 -0.032156203
-0.0003643822 -0.013399579 0.0014639328 0.00017396105 -0.025414659 -0.003027892 -0.005625396 0.014508009
-0.00014636178 -1.3830705e-06 0.0032795744 0.0027440034 -3.149976e-05 -0.0009576137 0.02447251 -0.011794157
-8.088638e-05 0.0021805584 -0.023993315 -0.0044615935 0.020519944 0.00032192553 0.014423071 0.0006120445
-0.0033369623 -0.002803869 -0.0026911306 -0.025155177 0.0012718334 0.0048909904 -0.016404124 -0.013595854
-0.021465307 -0.00040742778 -5.729326e-05 0.0026148418 0.016837163 0.016039815 0.01436424 8.483625e-05
-0.018923474 0.020414738 0.03179749 -0.035800353 0.009298171 4.478518e-05 1.9561186e-05 0.019407094
0.008845054 0.006837243 -0.005617086 -0.003183298 -0.001284078 -0.013897925 -0.00014943202 0.0069243507
0.0036821635 0.024141183 -0.008707121 -1.0016097e-07 4.2159286e-06 -0.042495105 -4.4230906e-06 0.0011584255
-0.0010789952 9.532069e-06 -0.0002481752 -0.00033163742 -0.0011419622 -0.00015081093 -0.0018510069 0.014980998
2.1239954e-05 0.00080391776 -0.0063360143 -0.0008353296 0.016720843 0.008187013 -0.027120128 -0.0014343199
0.007966011 0.0059807 -0.0020638758 -0.0035725671 0.0009543904 -0.0008039562 -0.03375392 1.4847216e-05

batch_norm.running_mean f4 [128]
00000000: 3f1f c73d 08be ec3d 5f34 223c cad5 f6bd
00000010: 5d1f 16bd e3c2 e9bd 1032 1fbe 5b35 97bd
00000020: e3c8 9b3d f1bc 273e ba6c cfbd acb4 b1bd
00000030: 3626 e2bd 06b9 5a3d 7325 2a3e 4bdd 4cbe
00000040: 94cc 02be 6bfa b5bd 372c 0dbe 653c ef3d
00000050: a02d 373d 0697 d6bd 37bc 84bd 68bb 4ebd
00000060: 827e fc3d 3f5c dcbd 400b 603c b935 42bd
00000070: ab1d b4bc feb3 383d 9cff 78bd a322 2c3c
00000080: d1e4 a5bd 7270 fdbd 38d5 1bbc f6cb 68bd
00000090: 929d 303d 615b 1b3e 0add ec3b 8101 d2bd
000000a0: 1f7b 803d f56d 213d 9b9f 8dbd a64a b73c
000000b0: 9672 843e 29f1 04be 24fb 4c3e cd83 50bd
000000c0: ea80 513d 02bc 45bd 6fd8 163e 9494 9abd
000000d0: fd94 9cbd e04f 4d3e 99ef 9c3d 41b4 dabb
000000e0: 0b11 cf3d 7a63 ecbd c5bf 94bc 8baf 263c
000000f0: 1caf 5dbd c02a 81bd e5ec ddbd a257 0c3d
00000100: 260a 39be 8cef ee3b 09bc 853c c399 eebd
00000110: 40c6 d3bc 0399 38be 7a00 8dbe 35b0 a1bd
00000120: 3ca7 b73e d129 a03d 2803 9b3d 63da bdbd
00000130: c873 6cbd bfe0 dd3d e1ee 16be 4dd0 8c3d
00000140: 18f5 d73c 9197 4c3d 820f 97bd 1571 9a3d
00000150: 2722 04bd eaa3 b73c 351b 92bb 4321 a13e
00000160: 60cb 4fbc 2a59 76bd f196 053c 895b 07be
00000170: df1e 8bbd fecd 0cbd f6f0 b8bb 7dba b5bb
00000180: 42b0 1ebd b2dc dc3d bd44 c13d 64c2 243d
00000190: bb55 aebd bd77 e9bd bcd4 aa3a f54c e43d
000001a0: a9da 973e afeb 0ebb d0cc 1c3d 15b5 f53b
000001b0: bc3c 513d 058d 1b3d 42f5 06bd dac3 b63d
000001c0: ea59 4bbc 0867 25bb 911a 74bd 59d2 c03d
000001d0: 88cd 20bc d236 353d 794c 963c c1b6 893d
000001e0: 32bd ecbd dd42 56bd 7718 8bba ba15 51bd
000001f0: a21b 36bc 2297 983c bd12 a13d bb25 2a3e
0.097227566 0.11559683 0.009900182 -0.12052496 -0.036651004 -0.11414125 -0.15546441 -0.073832236
0.076066755 0.16380669 -0.1012816 -0.086770386 -0.110424444 0.05339911 0.16615848 -0.20006292
-0.12773353 -0.08885654 -0.13786398 0.11681441 0.044721246 -0.10478024 -0.06481212 -0.050471693
0.12328817 -0.10759782 0.013674557 -0.047414515 -0.021986803 0.04509353 -0.060790643 0.010506305
-0.08100284 -0.12374963 -0.0095112845 -0.056835137 0.04311902 0.15171577 0.0072284983 -0.10254193
0.062734835 0.039411504 -0.06915208 0.022374462 0.25868672 -0.1298262 0.20017678 -0.050906945
0.051148333 -0.048275 0.14731 -0.0754787 -0.07645605 0.20050001 0.07662887 -0.00667432
0.101106726 -0.11542411 -0.01815785 0.010173689 -0.054122075 -0.06306982 -0.108362 0.03426326
-0.18070278 0.00729174 0.016325014 -0.116504215 -0.025851369 -0.1802712 -0.27539426 -0.07894937
0.35869777 0.07820476 0.075689614 -0.092701696 -0.057727605 0.108338825 -0.14739563 0.06875668
0.026361987 0.049949232 -0.07376005 0.075411 -0.032259133 0.022417028 -0.0044588097 0.3147069
-0.012682766 -0.060143627 0.008153663 -0.13218512 -0.067929976 -0.034376137 -0.005643959 -0.005545913
-0.03874231 0.10784282 0.09436939 0.040224448 -0.085124455 -0.113997914 0.001303337 0.11147491
0.29659012 -0.002180796 0.038281262 0.0074983933 0.05108331 0.037976284 -0.03294874 0.089240745
-0.012411574 -0.0025238413 -0.05959565 0.09415121 -0.0098146275 0.044241734 0.018347012 0.06724311
-0.11559524 -0.05230986 -0.001061215 -0.05104611 -0.011114987 0.018626753 0.07864902 0.16615956

batch_norm.running_var f4 [128]
00000000: 18e1 ac24 dc7a a424 0aab 9c23 46a8 8224
00000010: da3a cb23 f9ce 8024 fadc 5525 3f06 2524
00000020: d8c5 1924 035a 1925 a122 b324 dbdd 8624
00000030: 1afc ad24 bd75 7e24 a2a2 6325 b5fe 8925
00000040: 2541 5925 41f2 5e24 b6d4 2525 a50c e524
00000050: 9d5c aa23 b69c 7a24 3843 e723 cf40 2024
00000060: 56fc c024 4372 9224 1ecd 7b23 2e47 dc23
00000070: da97 1424 69af 0024 22d9 3c24 e2f2 9923
00000080: ed46 5924 0f17 2525 d35d b923 6923 1324
00000090: 80f7 f023 6159 0a25 512d 1e23 65d7 9b24
000000a0: 762d f623 2673 d523 6d4f 3f24 50c0 a123
000000b0: 1b56 d525 b34e 0725 f775 8425 f907 bb23
000000c0: 1d0c ba23 feeb dc23 d3ac 6625 ca47 9024
000000d0: b331 2c24 867e 8025 731f 5f24 b579 c423
000000e0: ce29 8c24 ba57 2b24 e6a9 0d24 a5b0 9023
000000f0: ef6d cf23 4321 f623 ba46 9f24 fe7a e423
00000100: fa62 3625 f15a 7423 ea2a 3223 9ed4 3c25
00000110: c12d 2923 a4ce 1725 a32c 0626 2a78 0a24
00000120: 2181 c426 1f19 fd23 bf12 eb23 3897 a724
00000130: 0e01 6a24 d853 c724 9d10 0a25 5cc9 a924
00000140: 51fa ef23 5d3d 4623 323b 2d24 6996 7524
00000150: 24ec 2123 0614 3a23 7b7b c323 e6a6 0d26
00000160: bcdb 7e23 dce6 4f24 7715 4e23 8734 c924
00000170: c0bb 3b24 1905 db23 2198 aa23 a674 ec23
00000180: 18da 8423 d9b0 5224 8e9d 9c24 b6c1 6223
00000190: e072 4824 5a7c f124 c499 4923 14b4 f823
000001a0: 2210 f125 b542 2d23 2a89 6423 1962 1523
000001b0: bfc7 fe23 5947 dd23 bcb4 5c23 fd34 6d24
000001c0: 4db5 2123 a3eb cb23 93b6 1724 b149 7e24
000001d0: 9a70 9823 b726 dc23 d794 8323 2a34 a523
000001e0: 25d2 bb24 ff4e 0024 5e68 4823 2c14 c823
000001f0: 6c77 1c23 6678 5023 dd00 1924 db6d ef24
7.497443e-17 7.1331794e-17 1.6985992e-17 5.666358e-17 2.2034229e-17 5.5861777e-17 1.8549675e-16 3.5783962e-17
3.3344167e-17 1.3301132e-16 7.768754e-17 5.8489074e-17 7.545387e-17 5.51772e-17 1.9744214e-16 2.3938308e-16
1.8843822e-16 4.8343773e-17 1.4383538e-16 9.933434e-17 1.847066e-17 5.4342848e-17 2.5073538e-17 3.4749365e-17
8.36942e-17 6.3510974e-17 1.36501725e-17 2.3882594e-17 3.2221008e-17 2.7904154e-17 4.094992e-17 1.6691158e-17
4.711445e-17 1.4319281e-16 2.0097476e-17 3.1905537e-17 2.6125672e-17 1.1999875e-16 8.574793e-18 6.758543e-17
2.6690627e-17 2.3142274e-17 4.14838e-17 1.7537102e-17 3.7007957e-16 1.1736048e-16 2.2978286e-16 2.0277957e-17
2.017129e-17 2.3952394e-17 2.0007875e-16 6.257166e-17 3.733865e-17 2.2290196e-16 4.8382055e-17 2.1301908e-17
6.078614e-17 3.715402e-17 3.071841e-17 1.5687323e-17 2.2489544e-17 2.668546e-17 6.9075074e-17 2.4771899e-17
1.5819518e-16 1.3246524e-17 9.658487e-18 1.6378438e-16 9.171197e-18 1.3167175e-16 4.6551083e-16 3.0025763e-17
1.3635233e-15 2.7440954e-17 2.548669e-17 7.268088e-17 5.0741555e-17 8.644453e-17 1.1975221e-16 7.363318e-17
2.6018445e-17 1.0746596e-17 3.7563536e-17 5.325331e-17 8.777832e-18 1.008732e-17 2.1194238e-17 4.914539e-16
1.3815898e-17 4.5081515e-17 1.1171828e-17 8.725884e-17 4.0708192e-17 2.3746187e-17 1.8495866e-17 2.5636574e-17
1.4403835e-17 4.5686287e-17 6.7921124e-17 1.22925044e-17 4.346539e-17 1.0472775e-16 1.0928793e-17 2.696448e-17
4.1817768e-16 9.3924746e-18 1.238895e-17 8.098079e-18 2.7623331e-17 2.3991085e-17 1.1964496e-17 5.1436066e-17
8.7662194e-18 2.21091e-17 3.2897552e-17 5.513989e-17 1.6527562e-17 2.3868844e-17 1.4266085e-17 1.7911428e-17
8.145432e-17 2.7822488e-17 1.0864122e-17 2.1692587e-17 8.4820655e-18 1.1301198e-17 3.3177318e-17 1.0383583e-16

fc.weight f4 [2, 128]
00000000: d015 5f3c 1f45 e2bc 84d5 203c cc78 33bc
00000010: 49eb ad3c fe93 88bb 32d2 b03d 3997 4fbb
00000020: 0038 96bd 0932 3ebd 1a61 063b 4216 bdbd
00000030: b63b b5bd 0ac8 4a3d fed5 a93c 110d 94bd
00000040: 5a79 0abd 03d3 293d 875c cc3d ec54 7abc
00000050: ccec 843d f9a5 3c3d 8c25 883c 06c9 1c3d
00000060: e2a2 453d dbc6 c43d c4b9 803d 5693 80bd
00000070: 8625 b23b 2d07 aebc 36ad 833d 92a4 873c
00000080: 353a 4abd 401c 863d 3da9 173d 96eb b83b
00000090: c0a4 b13c 0dba 3abd 3e7f d03c 82e3 40bd
000000a0: a10e 553d 6854 903c 9779 003d 8a02 523d
000000b0: d15c 9abc 0428 993c ea30 d33c 5dd1 693d
000000c0: 4a00 d0bc 77b1 863c e5b4 1cbd fdcf 253c
000000d0: bdb5 c1bc 9f0b 99bd 9003 a83d 5e31 30bd
000000e0: ddf8 363d ba35 8f3c 3f42 b5bd 4dfa 31bc
000000f0: 76f4 743d 7c88 c6bb 65ca a93d 8f1d 433d
00000100: b171 143d b663 57bd cd01 3abd 8e28 1c3d
00000110: 18e4 47bd 0553 3d3d 9fc1 f53c 68cf cfbc
00000120: 138a bdbb 8e2b f1bb e0a2 043d f297 523d
00000130: b10d 0e3d 2ec0 9e3d 5af6 cb3c 6914 16bc
00000140: d29f 12bd e415 7c3d ec4c ad3d 26e2 e3bd
00000150: 035e 273d 7669 05bd b028 5d3d f200 d03d
00000160: 5f31 933d 0430 8f3c 093d e5bb 0142 a3bd
00000170: 4c70 613d 4a16 11bc 4ed5 403d ab65 1dbd
00000180: bce7 5dbd 65ac 043d 742d 88bd b4b9 4d3d
00000190: 9b78 163d 50c2 febd 6c20 8e3d 0061 d2ba
000001a0: dd6f 2dbd b7fc c4bc 5d70 003d 5fc5 533d
000001b0: 8b1f 0c3d 9a34 aa3b 95a7 b83c e0f7 823d
000001c0: 57fd a1bd 3658 dabc 4268 08bd 00d3 bd3c
000001d0: c590 8d3d 88d1 2dbd 0749 c7bd bc65 803c
000001e0: 6302 0fbd 99ca 14bc 1375 f3bc 88a9 d73c
000001f0: 48a3 a4bd bc4b 13bd 378d 883d 7fe0 62bd
00000200: f83c 9f3a d214 853d 46f5 2d3c b1a1 a03d
00000210: 835e ad3c 599e 423d 07d0 47bb a401 4abd
00000220: df3c aabd 1240 6cbd 59dd 273d 54df e83d
00000230: cbee 063d 4eb2 4a3d 0d07 153d 097d 5e3d
00000240: ec7f 0abd 0f1c 2a3d d1b6 8d3c 9e1d 583d
00000250: 0e4b 823d d406 3a3d 7960 ccbd a318 0cbd
00000260: 7a95 7bbc a8a2 523d fc69 1ab9 c3e3 7bbd
00000270: 5eac 973b 0fe1 e23b 986b 3a3c eb9a 53bd
00000280: 19fd 27bc 1d5c 863d f798 7e3d f8a3 9f3b
00000290: 4ca7 fcbc d57d 21bd ab76 09bb 26ea 4f3d
000002a0: 75b9 523d cb79 963d 342d db3c d868 4f3d
000002b0: c12a 6f3d e7f3 4b3c 81da 6c3d bd60 0c3c
000002c0: 3b29 c6bc 95b0 863c 1fa1 5bbd cb6a a23c
000002d0: f7d2 c1bc 43b6 8bbd 3c6f c5bd 8806 413d
000002e0: 09ac 373d 9bcd 64bd e71d 353b 12d3 263d
000002f0: 078d 01bc a5e0 cfbb a6e2 2e3d 2bef 3d3d
00000300: 4d9e 593d 7243 993d 1b15 e4bc ba6e cc3d
00000310: 2122 75bd 1267 12bd 3a94 b2bd e791 4c3d
00000320: 054a 993d cd15 27bc 5c5c 053d 8402 ed3c
00000330: 8eba adbc 21d7 7cbd df61 74bd 5a5a 333c
00000340: 17bf 263d 1d24 8fbc df67 93bd c4a6 a9bc
00000350: 7eb1 3cbd c364 06bd e6d3 5c3d 77d7 78bd
00000360: 0a5b 1c3d 30dd f8ba 0b3a 24bd 04d1 6e3d
00000370: df6b 7b3d 860e 373d 2d76 3f3d f30e 953d
00000380: 9478 a03c 8f7d 8cbd c71f 21bd 4fb2 4d3d
00000390: 7586 163d ac90 febc 1a2d 8e3d 5a63 45bc
000003a0: 3586 953d e27b c4bc 6d64 023d a45d 513d
000003b0: 2584 8f3d aff0 c23b 3920 da3c a5ef 5cbc
000003c0: 5cd9 a1bd b3e0 273c 0452 a73a 3c33 12bd
000003d0: a7d6 a6bd 965e 89bd 6235 8d3d d94b b83c
000003e0: c5e0 763d d37f 5abd 6c72 e4bc 8daa 323d
000003f0: 31a0 a7bd 1fe7 8ebc c9c0 e4bd 7070 62bd
0.01361604 -0.02762085 0.009816531 -0.010954093 0.021230357 -0.0041680327 0.086338416 -0.003167583
-0.073349 -0.046434436 0.0020504654 -0.09232761 -0.088492796 0.04950718 0.020731922 -0.07229055
-0.033807136 0.041461002 0.09978586 -0.015279036 0.06490478 0.04605672 0.016619466 0.03827765
0.04825104 0.09608241 0.06285432 -0.06278102 0.005436602 -0.021243656 0.06429522 0.016557965
-0.049371917 0.06548357 0.037026633 0.0056433184 0.021685004 -0.045587588 0.025451299 -0.04709197
0.052015904 0.017618373 0.031365957 0.051271953 -0.018843086 0.018695839 0.02578016 0.05708443
-0.025390763 0.016442044 -0.038258452 0.010120389 -0.02364623 -0.0747292 0.082038045 -0.04301583
0.04467093 0.017481674 -0.08850526 -0.010862899 0.05980345 -0.0060587507 0.08290557 0.04763561
0.036241237 -0.052585326 -0.045411874 0.038124613 -0.04880151 0.04622175 0.029999552 -0.025367454
-0.005784282 -0.0073599285 0.032381892 0.051414438 0.034681026 0.07751499 0.024897743 -0.00916014
-0.035796948 0.061544314 0.08461937 -0.11127119 0.04086114 -0.03257128 0.05399388 0.1015643
0.07187151 0.01747895 -0.0069958013 -0.079715736 0.055038735 -0.008855412 0.047078423 -0.038427036
-0.054176077 0.03239097 -0.066492945 0.05022593 0.036736112 -0.12439406 0.06939778 -0.0016050637
-0.04234301 -0.024046285 0.031357158 0.0517019 0.03420977 0.005194259 0.022540847 0.06394935
-0.07909649 -0.02665339 -0.033302553 0.023171902 0.06912378 -0.042436153 -0.09730726 0.01567351
-0.034914386 -0.009081506 -0.029718911 0.026325956 -0.08038956 -0.035960898 0.066675596 -0.055389877
0.0012148907 0.06498112 0.01061756 0.0784334 0.02116323 0.047514293 -0.0030488984 -0.04931797
-0.083123915 -0.05767829 0.040982578 0.113707215 0.032942574 0.04948645 0.036383677 0.05431846
-0.033813402 0.041530665 0.017299088 0.05276262 0.06361972 0.045416668 -0.09979338 -0.034203183
-0.015355462 0.051424652 -0.00014726067 -0.061496507 0.004628702 0.0069238017 0.011378191 -0.051661413
-0.010253214 0.06560538 0.062157597 0.0048718415 -0.030841492 -0.039426643 -0.0020975273 0.05076041
0.051446397 0.07347449 0.026754953 0.050637096 0.058390383 0.012448288 0.05782557 0.008567986
-0.024189582 0.016441623 -0.053620454 0.019826313 -0.023660166 -0.06821873 -0.09640357 0.04712537
0.0448418 -0.055860143 0.0027636231 0.040728636 -0.007907159 -0.0063439184 0.042696618 0.046370666
0.053129483 0.07483567 -0.027842095 0.09982057 -0.059847 -0.035742827 -0.08719678 0.04994383
0.07484821 -0.010198069 0.032558784 0.028931864 -0.02120712 -0.0617286 -0.05966365 0.010946834
0.04070958 -0.017473275 -0.07197546 -0.020709403 -0.046067707 -0.032810938 0.05391302 -0.06075236
0.03817276 -0.0018986817 -0.040094417 0.0583048 0.06138217 0.044691585 0.04674356 0.07278242
0.019588746 -0.06859886 -0.039336946 0.050218876 0.036749322 -0.031074844 0.06942196 -0.012047613
0.073009886 -0.023984853 0.031834055 0.051114693 0.070076264 0.005949102 0.026626693 -0.01348487
-0.07902786 0.010246444 0.0012765531 -0.035693392 -0.081464104 -0.06707494 0.068949476 0.022497104
0.06027295 -0.05334456 -0.027886592 0.04361968 -0.08184851 -0.017444192 -0.11169583 -0.05528301

fc.bias f4 [2]
00000000: 31bb 5fbd 022b efbb
-0.05462188 -0.007298828
